Projects/Keras/QuantisedCode/weights.tflite (tflite, 429272 bytes, 8 tensors)

conv2d_1/Conv2D_bias f4 [16]
00000000: 3b42 323c 5a89 4abd de8f 65bd 03ce a5bc
00000010: fb19 99bc 9153 393d d990 ac3c 1924 9e3b
00000020: d5f6 cb3c ef86 1abc bb3f d2bc 484d 913c
00000030: ca59 56bd ad7c 2dbc c36a 93bd bc30 f5ba
0.010880048 -0.049447395 -0.056045406 -0.020239836 -0.018689146 0.04524571 0.021065162 0.0048260805
0.024897972 -0.009431585 -0.025665155 0.017737046 -0.052331723 -0.010588807 -0.071980976 -0.001870654

conv2d_1/kernel f4 [16, 5, 5, 3]
00000000: 2d05 f43c c408 013e ceac 07bd d61f be3d
00000010: cec6 2dbc 5701 a43d 7be3 013e d15e 3ebd
00000020: 72f0 dd3c 2934 e23d 67f7 b63d a386 8abd
00000030: 7c19 e1bc 64fd d1bc aadf 883d 4254 4f3d
00000040: 8e4d c73d 6e00 14bd 53ca ab3d 0288 843d
00000050: c211 973b 90ef 973c bafc b63d e0b6 e8bc
00000060: d61a 4e3d 1a80 b4bc 8a68 933d 4726 1c3c
00000070: 8943 f43d e8fc 583d dba7 1c3d 204f 893d
00000080: 7673 343d 2ee8 e43d d32d b8bd 0291 56bd
00000090: 95be fdbc 8753 4b3d 6c2b 8ebc acfb 42bd
000000a0: b0a8 20bd 9a8b abbd a365 233d d969 b83d
000000b0: d822 e1bd 4be0 263d e888 e43d c324 b53d
000000c0: ee87 70bb 0ce0 6c3d 4391 623c d4fb 963d
000000d0: 8808 c0b6 c0de 04bd ff81 b3bc 1718 20bb
000000e0: 4515 15be 0ccc 8aba 8cb0 b0bd 3493 fbbd
000000f0: 6e65 f8bd 4481 d0bd 068b f6bd 943a 0cbe
00000100: cbb0 a3bd 0821 9cbd d984 503d 75a4 0bbe
00000110: 9245 abbd 0502 ffbd 4f91 783d d553 99bd
00000120: 652e 0fbd f2cd 85bd 2fd0 04bd 5d8b 373d
00000130: 9a05 78bc 9c1d fb3c 65ec 7d3d 6bfc 12bd
00000140: 1a0c dfbd 2e1d 70bc 225a 42bd 419b bebd
00000150: 7d56 233d 9b34 bc3b ce8d bbbd 9c84 463d
00000160: 6241 f03c c57c 43bb d7b8 fcba e3b7 95bc
00000170: b195 9ebd e693 823d 6dca 8cbd a1bf 08bd
00000180: 9f1f 1abd ef25 163d d77b 4e3d 4154 b63b
00000190: e71f 603d 8e6d c83d f247 15bd 2481 9cbd
000001a0: 53fb e2bd cdf1 aebd 19cd 043d 2730 4d3d
000001b0: 54ef b53d 0169 2b3c 02c8 133d 4960 b03d
000001c0: 243d d33d 779b 023e 3fa3 9ebc c2ae 39bd
000001d0: 5c1e b53d 04f1 a3bd 6a7b cfbd d9b9 4fbc
000001e0: 0eab 8c3c c5d5 e9bc bc0f 073c 65b2 8bbd
000001f0: 80ba a0bd d6f9 e23c 8e2a a33d ffcc 763d
00000200: 8784 973b a6f3 00bd 6d95 413c 6a72 483a
00000210: 3370 723d 366b eb3c aa82 11be 458f ccbd
00000220: fa24 c53d 6c0d 39bd f84c 973d 4146 2d3d
00000230: e079 0e3e 448c 893c 0fbc 483d 8449 d43d
00000240: 8d0c a83c 3c94 a4bd b09f 493c a9eb e9bd
00000250: 6abf acbd 5d07 473d 1892 2dbd 844d f4bc
00000260: 246f 14be f781 0ebe 6c28 e2bb ab09 8cbd
00000270: dac7 19bc 813b 8ebc ed67 c8bd 1deb c8bd
00000280: f02f 7abd 89b3 6c3d ea17 66bd f941 5b3d
00000290: afcb 8b3d 535b 48bd de50 d2bd 2d99 06be
000002a0: 2611 cebd 2243 513a 6cc2 dabd 1494 183d
000002b0: c78c 653d 90d3 84bd 962b 11bd a90d b0bd
000002c0: a16a 763d 08d2 2d3d dc43 1fbd 68bd 97bb
000002d0: 4180 443d 361a 6b3d cbc5 023c eb3a cc3d
000002e0: 453f 72bc 7d02 c33d c9f4 2c3d 6a31 20bd
000002f0: 6d17 b33d 9435 973d 3ca6 be3c ea29 243d
00000300: 9e19 f03d 2f92 903b 6780 4a3d 5db7 92bd
00000310: 237c 1d3d 04bc 29bd b1e5 70bc bf59 873d
00000320: 4663 a93d b68c 133e bf7e 51bc ac7e 0d3e
00000330: 662b 05bc 7503 203e e96c f63c 1071 a5bd
00000340: 4483 0d3e 0db3 2ebc 752f a73d 1be1 4fbd
00000350: b0c2 c2bd ff7b 86bd 334d 94bd 6726 a63d
00000360: ce05 f73d 8f57 36bd 62ca b23c ed9a c23d
00000370: 48c4 53b9 1d7c 5f3c 4ddf 15bd 8d9b 60bd
00000380: eb6b ea3c 0547 7fbd b659 3a3c cc3f 09be
00000390: 83f9 b7bd 149f 06be bef9 643d d433 efbd
000003a0: 641d 9abd ab1c bb3c b55f a4bc fd71 333c
000003b0: b342 833d b9fc 97bd 4d6a 04be 9a27 cf3c
000003c0: b66c c9bd dce7 723c 8c6c 8cbd 80ef 923d
000003d0: 4eaf b83d 5fb3 f6bc 8201 173c 9104 253d
000003e0: 8cf6 963c 9837 e3bc 2d04 b7bd 93a4 343d
000003f0: 4014 a13d 5ff0 03bd ca10 bfbc 32a0 c63d
0.029787624 0.12601 -0.033123784 0.09283416 -0.010606481 0.08008068 0.12684433 -0.046477143
0.027092192 0.11045105 0.08933907 -0.06763961 -0.027477972 -0.025633521 0.066832855 0.050617464
0.09731589 -0.036133222 0.083882 0.06471254 0.004610271 0.01854685 0.089349225 -0.028407514
0.05031856 -0.02203374 0.071976736 0.00953061 0.11926944 0.052975565 0.038246017 0.06704545
0.044055425 0.11177097 -0.08993115 -0.052384384 -0.030974666 0.049640205 -0.01735469 -0.047603294
-0.039223373 -0.08376236 0.03989185 0.09004564 -0.10992974 0.040741246 0.11158925 0.08844902
-0.0036702114 0.057830855 0.013828578 0.07372251 -5.723039e-06 -0.032438993 -0.021912573 -0.0024428421
-0.14558895 -0.0010589375 -0.08627424 -0.12283936 -0.12128721 -0.101809055 -0.12038235 -0.13694221
-0.07992705 -0.07623488 0.050907943 -0.13636954 -0.08362879 -0.12451557 0.060685452 -0.07486693
-0.034956355 -0.065334216 -0.0324251 0.04481064 -0.015138054 0.030653767 0.06199302 -0.035885256
-0.1089098 -0.0146553945 -0.04744924 -0.09306956 0.039877404 0.0057435757 -0.091579065 0.04846631
0.029328052 -0.0029829007 -0.0019281161 -0.01827616 -0.07743395 0.06375866 -0.06874547 -0.033385877
-0.037627812 0.03665727 0.05041107 0.005564243 0.054717924 0.09786521 -0.036445566 -0.07641819
-0.110830925 -0.085422136 0.03242216 0.05009475 0.08883539 0.010462047 0.036079414 0.08612115
0.10314396 0.12754618 -0.019364951 -0.045332678 0.08843681 -0.080049545 -0.10130961 -0.012678587
0.017171409 -0.028544316 0.008243497 -0.068211354 -0.07848072 0.027707022 0.07967101 0.060254093
0.004623953 -0.03148236 0.011815411 0.00076464436 0.059189033 0.028737646 -0.1421 -0.09988264
0.09626193 -0.045178816 0.073877275 0.042303327 0.13913679 0.016790517 0.04900747 0.103655845
0.020513797 -0.08036086 0.012306139 -0.11421902 -0.08434947 0.048591007 -0.042375654 -0.029822119
-0.14495522 -0.13916765 -0.0069017913 -0.068377815 -0.009386027 -0.017362358 -0.09785447 -0.09810469
-0.061080873 0.057788406 -0.05617515 0.053529713 0.06825959 -0.04891522 -0.102693304 -0.1314437
-0.100618646 0.0007982721 -0.10681614 0.037250593 0.05604246 -0.06485665 -0.035441957 -0.085963555
0.060160283 0.04243663 -0.038883075 -0.0046307333 0.047973875 0.057398044 0.007981728 0.09972175
-0.014785592 0.09521959 0.042225633 -0.039109625 0.087447025 0.07383266 0.023272626 0.040079035
0.11723636 0.0044119577 0.04943886 -0.0716388 0.038448464 -0.04143907 -0.0147032 0.066089146
0.08270888 0.14409146 -0.012786566 0.13817853 -0.008128023 0.15626319 0.03008123 -0.080782056
0.13819605 -0.010662806 0.081633486 -0.050751787 -0.0950979 -0.06566619 -0.07241287 0.081127934
0.12061654 -0.044517096 0.02182502 0.09502206 -0.00020195649 0.013640431 -0.03658991 -0.054835845
0.028615912 -0.06232359 0.011373928 -0.13403243 -0.089831375 -0.13146621 0.055902235 -0.11679807
-0.07525137 0.022840818 -0.020065168 0.01095247 0.06409206 -0.0742125 -0.12931176 0.025287438
-0.09835188 0.014825787 -0.06856641 0.07174587 0.09017812 -0.030114828 0.009216668 0.040287558
0.01842811 -0.02773647 -0.08936343 0.044102263 0.078651905 -0.032211658 -0.023323435 0.096985236

conv2d_2/Conv2D_bias f4 [32]
00000000: 3959 dbbb 7591 ea3c 25f2 b8ba 75d0 29bc
00000010: 2c9c 453d 00fd 6b3d 0b3b 7c3d bb10 b53c
00000020: be87 623d c319 c33c 46ad 7d3c 9f7b 603d
00000030: c6ba b23c 95d6 c43c 53d2 65bb 9808 b4bb
00000040: 6aa0 e93c e1b2 69bc 7742 143d 276b 9d3d
00000050: 94fe ca3c c9aa 343d 070e 4a3d 0a84 173c
00000060: 1907 a73d eae8 8bbd 671a 813d 1f53 333d
00000070: e053 35bd 489e 803d 85df 6c3d c68e 473d
-0.006693986 0.028633812 -0.0014110251 -0.010364641 0.04824464 0.057614326 0.061579745 0.022102704
0.055305235 0.023815995 0.015483206 0.054805394 0.021817576 0.024028102 -0.003506799 -0.0054941885
0.028518874 -0.014263839 0.0361962 0.07686453 0.024779595 0.044108186 0.049329784 0.009247789
0.08155651 -0.06831534 0.06303864 0.043780442 -0.044269443 0.0628019 0.057830352 0.048720144

conv2d_2/kernel f4 [32, 5, 5, 16]
00000000: d5d3 173d bf90 5e3d b88c 01bc dea2 663d
00000010: 8246 133d f201 ab3b c61e c63b de52 d43c
00000020: b0e2 183b c2ab bf3d cbe9 b03d 0ee3 d4bc
00000030: 76d6 863d bb6f ac3b 7a7d 77ba 10d8 583d
00000040: d43e 6cbc 1bf3 03bd 3d7b 763d 91fc 573d
00000050: 1f77 833d 5784 243d 501f 16bd cebf 35bd
00000060: 3ca1 1cbd f60c 36bd 2749 5fbc 2c18 9bbd
00000070: bda4 373d de64 443d a79f 503d 68fb 42bd
00000080: eaad ce3d b06c 0ebd 3dfb c5bd e4c6 8cbc
00000090: 5dc6 71bd 4f23 4c3b 2793 debd f929 5ebd
000000a0: bd7f b73c 3a73 b9bd d6bb 00be 2b83 83bc
000000b0: 8c8d d9bd 6721 4bbd 813b 02bd 9820 633c
000000c0: ffe6 b53d f8c3 3abe bdd7 18bd 936b 79bd
000000d0: cbaa 13be f0f4 d73c 0a93 ecbd ed33 f6bd
000000e0: 7c44 e53d 25f8 1bbe 784f bfbd 120d 9ebd
000000f0: e157 86bc 1292 40bb 60ad 00be f01a 993c
00000100: 0d61 723d 7460 16be 0ac0 153c effe 19be
00000110: 2cda 98bd bbc1 e33d d8f9 bcbd a067 07bd
00000120: b86f fd3d fb5d 0ebe 916a 8ebd e36a e8bd
00000130: 5d2c 69bd 61ff 893d d6bb b8bd 77f1 e6bd
00000140: f8ca bbbc 38ee b7bb 9986 933d 36c3 ab3c
00000150: 44ac ebbc 5360 75bd ce1f ce3c 2054 313d
00000160: 4c8b e0bb a1ee f83d 3c10 9f3a c090 1b3d
00000170: ac2c 813d d5a3 b8bd e7b3 773d 4f98 9bbc
00000180: a8a2 7f3d 4a5c e7bb 4449 51bd 1e4f 1fbb
00000190: 97e3 6c3d f8bc 05be f93e 36bc 6867 1bbd
000001a0: ff40 4ebd fdd2 433c 43c3 2bbd 9657 25bc
000001b0: 64aa 1e3c 680c 1ebe 22d4 193c fe18 4f3c
000001c0: 6eea d93d e3e7 99bd 50c0 86bd 0259 a03c
000001d0: d23d b5bd c10c ebbd 0860 9ebd ef3f 81bd
000001e0: 5e52 a23b f37b 2a3c d7b8 62bd 137a 5d3c
000001f0: 5eb4 5cbd f06c c5bd 286b 9dbd 77f4 f9bc
00000200: a47f 1c3d 5990 49be 570f a7bd 8922 cdbd
00000210: f776 cabd 1179 033d f62b 4cbc abb0 4ebd
00000220: 9118 63bd f14c a9bd aee7 37bd b4ed 1ebc
00000230: 0235 83bd 98b4 d8bd 58b3 84bc 0508 95bd
00000240: cdd7 603d 6e44 01be d2c4 bfbd 5d40 24be
00000250: 5e6e cfbd ada9 eb3c 0d97 d1bb 3109 70bc
00000260: 3177 d83d 9611 cabd 8866 d53c 3136 9abd
00000270: c574 2fbd a3b2 dd3d eee3 b9bd accb e4bd
00000280: 5063 613d 63af 6a3d bd97 9cbc d0dc 3f3d
00000290: 1c04 983d e542 e5bd 8ec1 283d 1ee8 9e3d
000002a0: 842e 33bd 7387 c83d dcef 25bc e9dc f5bb
000002b0: c286 873c b9cf a6bd ef5e b03d dc8b 483c
000002c0: 495c 9a3d 784d 183d 3157 29bc 19e3 d03d
000002d0: 2481 913c 201b 70be f9f6 4dbc 3086 2f3c
000002e0: cb1b 32be 2bf5 8c3d 1d89 9abc 0171 cb3d
000002f0: ad26 f0bc 6954 0dbe 0b90 223d 011e 703d
00000300: 6391 ba3c 73fc 4ebd a0fa 8ebd 0e10 a5bc
00000310: ca15 873d 41f9 61be 0079 e43d 7227 823c
00000320: a1d3 0fbe 2829 b63d 3aeb 2a3d 2318 e43d
00000330: f362 693d 781c e4bd cc92 153d 94a2 0b3d
00000340: 63ef dbbd 4ae5 1bbd 0269 813d 8924 45bc
00000350: 30d6 c0bc 453b bfbd ebfb e43d cceb f03d
00000360: 246c 41be 9faa ec3d 79f9 113d fab5 4e3d
00000370: 9246 913d f75c a63c 0f28 9dbd bc08 ec3c
00000380: 2c60 1abd d013 8ebd a4b3 1c39 4e30 d5bc
00000390: 9ff7 e0bc 9b6b 57bb 8a5f e53d 9505 bdbc
000003a0: 7e9f 8fbc 0332 b43d 5c1e f03d dfa4 ca3d
000003b0: faa8 a53d dc58 583d 4016 1abc e5b0 8bbd
000003c0: cdd6 533c 35f6 ee3c c404 8e3d 857e ee3b
000003d0: bb94 833c 1da4 cfbd dcdb 99bc b984 ab3b
000003e0: 0c16 19bd c8a0 f8bb 01df 013d a0a3 1b3d
000003f0: 2c9a 3e3c 33cd e5bc ef56 2e3d f0d0 3b3c
0.037067253 0.05433726 -0.007907085 0.056307666 0.035955913 0.0052187378 0.006046149 0.02591842
0.0023328476 0.09358932 0.086383425 -0.025987174 0.06583874 0.0052623427 -0.0009441 0.05294043
-0.014419276 -0.032214265 0.060176123 0.0527311 0.06419205 0.04016527 -0.036650956 -0.044372372
-0.038239703 -0.044445954 -0.013628281 -0.0757297 0.04483484 0.047947757 0.050933506 -0.04760304
0.10091765 -0.03477162 -0.096670605 -0.017184682 -0.059027065 0.0031148975 -0.10867911 -0.054239247
0.022399778 -0.09055181 -0.12571654 -0.016053757 -0.10622701 -0.0495924 -0.03179503 0.013862751
0.0888195 -0.18238819 -0.03731512 -0.060893606 -0.14420621 0.026361912 -0.11551483 -0.12021623
0.11194703 -0.15231378 -0.09341329 -0.07717337 -0.016399326 -0.002938394 -0.12566137 0.018689603
0.059174586 -0.14685231 0.009140024 -0.15038656 -0.07463488 0.111209355 -0.092273414 -0.03305781
0.12374824 -0.13903038 -0.0695392 -0.11348512 -0.056927074 0.06738163 -0.09020202 -0.112765245
-0.022923931 -0.0056131147 0.07203407 0.020967107 -0.028768666 -0.059906315 0.02516165 0.04329312
-0.006852543 0.1215489 0.0012135576 0.03797984 0.063073486 -0.090156235 0.060474303 -0.018993525
0.06241098 -0.0070605623 -0.051095262 -0.0024308632 0.057834234 -0.13060367 -0.011123412 -0.037940413
-0.050354954 0.011952159 -0.041934263 -0.010091683 0.009684179 -0.1543442 0.009388955 0.012640236
0.10640417 -0.07514932 -0.065796494 0.019573692 -0.08849682 -0.11477042 -0.0773316 -0.063110225
0.0049536666 0.010405528 -0.05535206 0.013517874 -0.05388295 -0.09639919 -0.07686454 -0.030512078
0.038207665 -0.1968397 -0.08157223 -0.10016353 -0.09885972 0.03209788 -0.012461653 -0.050461452
-0.05544335 -0.082666285 -0.04489868 -0.0097002275 -0.06406595 -0.105813205 -0.016198799 -0.0727692
0.054893304 -0.1262376 -0.09363712 -0.16040178 -0.10128473 0.028767431 -0.0063961805 -0.014650629
0.10569609 -0.098666355 0.026049867 -0.075298674 -0.04283597 0.10825088 -0.09076677 -0.1117166
0.055026352 0.057296168 -0.019115323 0.046841443 0.07422659 -0.111944 0.041200213 0.077591166
-0.043745533 0.0979146 -0.010127988 -0.007503141 0.01654375 -0.08145089 0.08611857 0.012240376
0.07537133 0.037183255 -0.010335729 0.101995654 0.017761774 -0.23447847 -0.01257109 0.010713145
-0.17393415 0.068826996 -0.018864209 0.09933663 -0.029315317 -0.13801731 0.03968815 0.058622364
0.022774404 -0.050533723 -0.06981397 -0.020149257 0.06595953 -0.22067739 0.111558914 0.01588795
-0.14045574 0.08894569 0.041728236 0.11137416 0.05697913 -0.111382425 0.03651695 0.034090593
-0.10739019 -0.038060464 0.06318857 -0.012032636 -0.023539633 -0.09337477 0.11180862 0.11763725
-0.18888909 0.11555981 0.035638306 0.050466515 0.07093538 0.020308001 -0.07673656 0.028812759
-0.037689373 -0.06937373 0.0001494424 -0.02602401 -0.027461825 -0.0032870534 0.11199863 -0.02307395
-0.017532106 0.087986015 0.117245406 0.09894728 0.0808887 0.052819118 -0.009404719 -0.06820849
0.0129296305 0.029170135 0.06934503 0.007278266 0.016062131 -0.10138724 -0.018781595 0.0052343276
-0.03737454 -0.007587526 0.031706814 0.03799784 0.011633437 -0.028051948 0.042563375 0.011463389

conv2d_3/Conv2D_bias f4 [64]
00000000: f8bc 0b3e d34b 2b3d 70ed 523d 2c90 743c
00000010: fa69 963d 6550 e33d 0537 303d cc75 593d
00000020: 7a72 d93d b0bc 5f3d 56e9 66bc 7a99 dd3c
00000030: 7365 2a3d a875 043e bc1e 333d fbae b13d
00000040: 70ee 0f3d ea4b 573d 143b 463d 5b0d bf3d
00000050: faf0 dc3d 51e9 1c3e 0394 593d a243 7d3d
00000060: a69e 303d 9b9d ea3d e778 d93d dbe5 733d
00000070: 7caa 2a3d f2b2 c43d 6251 ef3d eca4 b73d
00000080: 3fd8 a43c dd84 1b3e 3be8 af3d 9ceb dc3d
00000090: 3359 943d 159f 743d d3ef b03c 2eb3 293d
000000a0: 23e8 0e3d ae82 073e d703 cd3d bf6f 4a3d
000000b0: e780 993d 5fa4 ba3d 0ecf 7d3d fa6a d93d
000000c0: 2edd d33d 6846 2c3c 6ce3 b13d 49e3 2d3c
000000d0: cb36 243e de20 523d 5f93 1e3e 458f 863d
000000e0: 34ca 923d 1365 f43d 577d b93d 0610 f33d
000000f0: b2cf 3d3d be46 353d 5c82 053d 2c75 05bd
0.13646305 0.04182036 0.05149597 0.014926951 0.07344432 0.110993184 0.04302122 0.053090855
0.10617538 0.054623306 -0.014093718 0.027050722 0.041600656 0.12935507 0.043730482 0.08675953
0.0351395 0.05256263 0.048396185 0.09328719 0.1078815 0.15323378 0.05311967 0.061832078
0.04312005 0.11455842 0.106187634 0.05954538 0.041666493 0.096044436 0.116854444 0.08967003
0.020122645 0.15187402 0.08589216 0.107871264 0.07243576 0.059722025 0.021598732 0.041430645
0.03488935 0.13233444 0.10010498 0.049422976 0.07495289 0.091133825 0.06196504 0.10616107
0.10344921 0.010514833 0.086859554 0.010613271 0.16036527 0.051300876 0.15485905 0.06570295
0.071674734 0.11933341 0.0905711 0.118682906 0.04634065 0.044256918 0.032595024 -0.032582447

conv2d_3/kernel f4 [64, 5, 5, 32]
00000000: e2d8 bcbc 1a3e 9fbb f29d b0bc 3afc ecbc
00000010: 06bf 4bbc c35b d4ba 6d99 ee3c 2876 51bb
00000020: e3d2 30bc 6ce4 713d 842a c93c 7c77 903c
00000030: 5485 d13b e8c0 8e3c f9c3 2ebd a1f1 fb3c
00000040: 9b91 883d 0ab9 393d 84fd 64bd 91ef 003c
00000050: fb0c 343c 2250 3e3c 374b 2abd 2160 c2bb
00000060: 347b 013d 35c1 213d 75a6 c43c 20c3 32bd
00000070: b38d a9bd e9e6 12bd 9cd8 493d 6cab 82bc
00000080: 3f0c d7bc b426 8fbd da2f aabb 9b9e 9b3c
00000090: 36db fdba 8b85 df3c 1efe a43c 4923 91bc
000000a0: e966 d63c 6a70 a5bc 88d2 8e3c b21d 013d
000000b0: d725 a43b 52ba 0a3b 0274 a1bd be6e 673c
000000c0: 469e cbbc 4444 e3bb daaf 563b a115 f53c
000000d0: 0d54 22bd cf9f 733b 85e6 e0bc df58 193c
000000e0: 0960 f2bb 5ec5 4ebd 7f68 683c 7dae 613c
000000f0: 20c9 66bd 5940 96bb 08e5 08bd f27a 3cbd
00000100: 0615 8d3c b1aa ccbc 4d78 b5bc f947 1bbc
00000110: dc72 433c c9d9 e1bc 138d 3c3c 2e12 3dbd
00000120: cfd4 fe3c 4dd5 9bbc 366a 863c 0c71 b63b
00000130: abf0 89bd 72e9 213c d91a 02bd b6b2 663c
00000140: 4d74 153c bf61 823d 9e45 78bc e12c 91bc
00000150: 670b 81bb 057d cabc 5b57 9bbc 4270 ce3c
00000160: 3cc4 73bc f3d6 67bd 83f0 48bd 7aa5 9a3b
00000170: 051a 653c 1422 b13c 3584 5c3c 9995 24bd
00000180: 5322 f7b8 5489 e0bc 8e75 b9bc 51c0 1e3d
00000190: 936f 25bc 9094 95bc d2b9 433b 45f0 8fbc
000001a0: 02ed b3bb db28 b13d 8211 033d d29c 1f3d
000001b0: b3c4 e93b 9424 953c f30e 49bd 2982 0b3d
000001c0: 63fe e23b 7690 323c f68a 603c 85e1 a33b
000001d0: e2b5 ec3b c534 803c 9435 6ebd ba71 863c
000001e0: e0d4 1cbc 53f1 96bc dd65 d63b 644e dd3a
000001f0: 4bfa 71bc f09d 423d 2025 603c cce0 8f3b
00000200: 91d9 c93b a4f6 1cbc b87b 5a3d c82e 4e3d
00000210: 3a2d 0b3c e347 113c fdb7 2b3c bc34 c0bc
00000220: 01f1 803b 68f4 913c 81d7 3f3d 1138 1e3d
00000230: 1ce4 15bd 1df5 b8bb f6fa b7ba 61e7 b1bc
00000240: 88f0 c13c 1e1f 0dbd f0c2 073d c7b4 0b3d
00000250: 829e f93c 5a36 163c b161 a13c 051c 883b
00000260: 64b6 783c ede7 74bd 2c80 a8bc 0131 6dbc
00000270: ce11 3abc f76f e53c f7d7 183d bee9 0f3d
00000280: 04dd 8d3c 63b6 a13c 109e 8cbd 145e d13c
00000290: b021 2e3d ab95 5e3d 9f12 5fbb b2b3 113d
000002a0: f169 1bbd ba85 053d 7edc 023d 371d 6dbd
000002b0: d247 673d a1e8 373d 5036 dfbb 43b8 8d3d
000002c0: 31a1 ec3b afa4 a83c 7da3 3abc 26d0 aebc
000002d0: e76e bdbc af41 683d 3ec4 023c ae98 353b
000002e0: 3f22 36bd cc27 5d3c 90c8 073d ed8c 95bb
000002f0: d24a 93bb a779 edbc 67f2 d23c ee89 2a3d
00000300: 24bb 713d 7be9 053d ddda 913c 2d1d 2a3d
00000310: 9eee 7e3c bd00 803d 1a01 49bd 11ff af3c
00000320: 5d86 c1bb d9a5 1d3c b983 103d 0f1b 17bc
00000330: e806 2e3d c9d5 0bbc 9bd5 9f3c e624 f13c
00000340: 39e5 14bd c5e1 14bb 42c1 eb3c d2b9 3fbd
00000350: 74d5 e8bd c57b 7d3c 7004 f3bc 6c01 353c
00000360: d3a4 6dbc fcc9 5dbd f17c 7ebc 7084 003c
00000370: 77d7 b03c 525a ee3b bbcc a7bd cb39 823d
00000380: cb70 5dbb df91 db3c 3af1 84bd 7d1c 61bc
00000390: 69c2 383c 8b4b 35bc 8f84 f7bd b8e9 60bb
000003a0: 6d10 1bbd 2472 00bc 4cf6 5bbd a839 afbc
000003b0: f168 ed3c 3f27 5b3d 727e f8bb 3ac9 1abd
000003c0: 0921 593d 8a4a 4a3d ef12 cebb d3bf b1bd
000003d0: e7b3 a33b e43d ca3c ecbc dc3c 9a1a e3bb
000003e0: 1c2b bbbd 8654 b9bc ed55 76bd 7bfd 7abc
000003f0: 2527 95bc e029 2ebc c256 93bd 1fc5 b33d
-0.023052637 -0.004859698 -0.02155969 -0.028928865 -0.01243568 -0.0016201664 0.029125893 -0.0031961296
-0.010792467 0.05905573 0.024556406 0.0176351 0.006394068 0.01742597 -0.042667363 0.030754866
0.06668397 0.045342483 -0.055905834 0.007869617 0.010989423 0.011615785 -0.041575637 -0.0059318696
0.031611636 0.039490897 0.024005154 -0.043643117 -0.0827898 -0.035864744 0.04927884 -0.015950881
-0.026250957 -0.06989804 -0.0051936926 0.018996527 -0.0019367698 0.027285358 0.020140704 -0.01771702
0.026172118 -0.020195205 0.017434373 0.03152246 0.0050093937 0.0021168184 -0.07883455 0.014125524
-0.024855744 -0.006935628 0.0032758624 0.02991754 -0.03963094 0.003717411 -0.02745367 0.009359567
-0.007396702 -0.050481193 0.01418507 0.013774511 -0.05634415 -0.0045853076 -0.033421546 -0.046015687
0.017221939 -0.024983736 -0.02215209 -0.009477609 0.01192924 -0.027569668 0.011508244 -0.046159916
0.031107334 -0.019022608 0.016408067 0.0055676755 -0.06735357 0.009882318 -0.031763885 0.014080694
0.009121967 0.063663 -0.015153317 -0.017721595 -0.003938127 -0.024717817 -0.018962553 0.025200013
-0.014878329 -0.056601476 -0.049057495 0.0047194334 0.013983254 0.021622695 0.013459255 -0.04018173
-0.00011784271 -0.027409233 -0.022639062 0.038757626 -0.010097402 -0.018259317 0.0029865396 -0.017570624
-0.0054909 0.08650371 0.03199912 0.038967915 0.007134044 0.018205918 -0.049086522 0.034059677
0.006927298 0.0108987 0.013705006 0.0050012493 0.0072238306 0.015650162 -0.058156565 0.01641165
-0.009572238 -0.01842562 0.006542905 0.0016884324 -0.014769147 0.047513902 0.013680726 0.0043908115
0.006159969 -0.009580288 0.053340644 0.050337583 0.00849467 0.008867237 0.010480878 -0.023462646
0.00393498 0.017816737 0.04683638 0.038627688 -0.036594495 -0.005644454 -0.0014036584 -0.021716775
0.023674265 -0.034453504 0.03314489 0.03410795 0.03047109 0.009168232 0.019699903 0.004153731
0.015180204 -0.059791494 -0.02056893 -0.0144770155 -0.011356784 0.02800749 0.037315335 0.035135023
0.017317303 0.01974029 -0.068660855 0.025557555 0.042512596 0.054341953 -0.0034038199 0.03557176
-0.03794283 0.032598235 0.03194856 -0.05788919 0.056464978 0.044899587 -0.0068118945 0.06919911
0.007221364 0.02058634 -0.011391518 -0.021339487 -0.023124171 0.056703266 0.007981358 0.0027709412
-0.044466253 0.013498258 0.033150256 -0.004563919 -0.0044950033 -0.028988672 0.025750352 0.041635446
0.05901636 0.032693367 0.017804557 0.04153173 0.01555982 0.06250141 -0.049073316 0.02148393
-0.00590591 0.009622061 0.03528187 -0.00922276 0.042487055 -0.008534857 0.019511035 0.02943654
-0.036351416 -0.0022717577 0.028778676 -0.04680807 -0.11368838 0.0154714035 -0.029665202 0.011047702
-0.014504629 -0.054147705 -0.015532718 0.007844076 0.021587117 0.0072739506 -0.08193346 0.063586794
-0.0033789154 0.026802955 -0.06491323 -0.013739702 0.01127682 -0.011065374 -0.120858304 -0.0034318995
-0.03785746 -0.007839713 -0.053701684 -0.021389797 0.028980704 0.053504225 -0.007583433 -0.03778956
0.05301002 0.049387492 -0.006288878 -0.08679166 0.0049958113 0.024687715 0.026945554 -0.0069306614
-0.09139082 -0.022623312 -0.06014054 -0.0153192235 -0.018207142 -0.010630101 -0.07194282 0.08777832

dense_1/MatMul_bias f4 [2]
00000000: 4bea 46bd bdea 463d
-0.048563283 0.048563708

dense_1/kernel/transpose f4 [2, 20736]
00000000: dc17 523a 9a93 bb3c ea82 e23c 9636 353d
00000010: 5237 5f3b da6c ccbb 7fed 973b 081b 64bc
00000020: 3f48 d93a fb75 643d 132c 683c 2fc4 7d3c
00000030: 56b0 8d3d 2bfb e43c 626c b1bc 65fa 0ebd
00000040: 3f72 f33b 81a1 3a3c 4ac9 ebbc a4fa cf3c
00000050: 2d30 8abc 6dc9 0c3d 9b0a 69bd e51d c4bb
00000060: 71ae cfba e4ff d7bc 26f8 51bc 1a8b a3bc
00000070: 1435 123d d28b 8a3c da43 a83c 258d 9b3b
00000080: 42f6 ccbc 4e36 debc 1a50 0abd 7f07 1c3c
00000090: b707 40bd a729 8e3d 8e69 ddbc 5bec 203c
000000a0: 60f3 9e3a 8fe3 b33b cdbc b33c 3abd 8c3c
000000b0: 48a4 663b 5467 81bd a4c4 d43c 298d eb3b
000000c0: 1695 0a3d bbdf c4bc 9bf8 fb3c b3ae dd3c
000000d0: bf4f 553d 2dfe 1d3b 68e5 8cbb 69e7 d83b
000000e0: c562 763a 5550 013d 55cd 55bd adcf cf3c
000000f0: 7c7f d73c 101c 593b f8c7 b13c 9392 083d
00000100: 08f6 e8bc c919 e03c 10a2 1cbd 079a 1fbc
00000110: e129 113c a403 7b3c 9c88 013d c8c2 8a3b
00000120: ee19 213d 1484 b2bc c3af 17bc 3e68 83bc
00000130: 9f90 6f3b 1e5c cb3c 1d1b da3b f051 86bc
00000140: 15c5 6f3d 67e2 243d 11e2 293c 2604 ad3d
00000150: 3b16 0abd 54e1 de3c 5d00 76bc cf5b 923d
00000160: 70cd 3c3c a95f c53b ecc7 51bd c424 95bb
00000170: 82fa 673d 01a8 e63c 5bfb 383c c49d 05bd
00000180: d170 2c3c 7349 33bb b4d0 0e3d a7ba 3d3d
00000190: 0589 7f3a fdd8 723d 545e 76bc aa31 d93a
000001a0: 0e17 6d3d 8271 85bc f852 81ba 7061 323c
000001b0: 05b2 983c e620 1ebd 614c 413c 7f8b ac3b
000001c0: 2194 823d 8613 f4bb b315 f3ba b04d 173c
000001d0: b933 f6bc 24f6 f9bb d98b 8439 b5fb 233c
000001e0: b270 323c 4712 7ebc 295f a13c 3597 aa3c
000001f0: fc42 e0bc b6d4 9ebc 054b 883c 91ae 1ebc
00000200: d7c2 2cbc aef2 55bd aaee b43c bb27 b53c
00000210: c670 12bc df51 fd3c f101 9c3b 5914 9d3c
00000220: c336 923c 2714 97bc 5ea4 86bb 8e87 bfbc
00000230: e554 813c 46b5 29bc e34f 23bc 1f15 78bd
00000240: f87a 313d f12d 593c c3d3 c13c 912e 763c
00000250: 9d49 88bc 655c 9cbb 06f7 603d a154 8cbc
00000260: 3fac 613d f841 2b3c 04ea 3d3c 1df9 a23b
00000270: 3fc2 503d c1c8 47ba 937d ff3a 9c89 36bd
00000280: 2a90 153c 4158 64bc 9571 9b3c 7a37 9e3c
00000290: b03f f6bb 0346 a93c 6c17 c3b9 9727 27bd
000002a0: 748b 063c 6874 07bc 40ff d03b ab95 a13c
000002b0: abbc 3cbd 2f2c bf3b dc96 183c 1fe7 d73c
000002c0: 8e4a 5d3b 37ec 523d 28d7 253c d8eb 1cbc
000002d0: 9468 5bbd d758 e73c 2f16 db3a 0d85 063c
000002e0: 3157 c3bc 18b0 e6bb 5564 2f3c 1299 713c
000002f0: 021d 433c e670 d3bb 137b 143d da23 593c
00000300: b9eb 1d3c 0096 513c d50f d93c dd63 f23c
00000310: 4a9a aebc 51f5 30bc d3f6 81bb 54a6 963d
00000320: f823 83bb 8d33 12bc 06b2 c1bc 9b7b 8c3c
00000330: 4b1b 8e3c 2341 ecbc 9a29 2dbd d3cd 333a
00000340: 41d6 9f3c b384 753c 4aaa 353d 4f20 ab3c
00000350: 7a9f 54bc 5c95 41bb 5cb6 d2bb 7033 0f3c
00000360: e25c 203d 77cc 223b 5f25 fabb 8276 29bd
00000370: 008b 0e3d aecd ca3a 9f03 56bc c283 6dbc
00000380: 8a41 09bb 32b5 d2bb 872d d9bb 90f2 cd3c
00000390: ad0b 98bc f0f0 cbbb be41 f43c e4da 6ebc
000003a0: c6d7 ec3c d508 cc3c d4d6 41bb 4ed6 653c
000003b0: 33f0 2f3c b382 c53b 9711 3cbc 4c35 2abc
000003c0: 2331 c33b 2d58 94bb d856 b338 a4e6 babc
000003d0: d27a c2ba 6936 bdbc c2b8 39bc 0be5 2bbc
000003e0: 8de2 b9bb b106 dd3b bed8 db3b c970 e7ba
000003f0: 08f8 1b3d 1a7a f7ba 8212 02bd d6e9 a43c
0.00080144196 0.02289753 0.027650315 0.04424151 0.0034060073 -0.006238562 0.004636466 -0.01392246
0.0016577317 0.055776577 0.014170664 0.015488668 0.06918399 0.027951797 -0.021658126 -0.034906764
0.0074293907 0.011391045 -0.028782506 0.02538807 -0.016868675 0.034371782 -0.05689488 -0.005985009
-0.0015844834 -0.026367135 -0.012815511 -0.01996379 0.03569515 0.016912375 0.020540167 0.0047470503
-0.025019769 -0.027125504 -0.033767797 0.009523272 -0.046882357 0.06941538 -0.027027871 0.009821977
0.0012126975 0.0054897736 0.021940613 0.017180074 0.0035193134 -0.063185364 0.025972672 0.0071884585
0.033833586 -0.024032464 0.030758193 0.027060842 0.052078005 0.00241078 -0.0042998083 0.006619383
0.0009398873 0.03157075 -0.052197773 0.025367582 0.026305906 0.0033128299 0.021701798 0.03334291
-0.02843763 0.027356045 -0.038240492 -0.009741313 0.008860082 0.015320692 0.03162442 0.0042346455
0.03933137 -0.021791495 -0.009258213 -0.016040917 0.0036554707 0.024824198 0.006656064 -0.016396493
0.05853756 0.040254977 0.01036884 0.08448057 -0.033712607 0.027207054 -0.015014735 0.07146417
0.0115235895 0.0060233665 -0.05121605 -0.004551502 0.056635387 0.028156282 0.011290397 -0.03262116
0.010524944 -0.0027357012 0.034867004 0.046320584 0.00097478955 0.059288967 -0.015037138 0.0016570587
0.057883315 -0.016289476 -0.0009866646 0.010887489 0.018639574 -0.038605593 0.011797995 0.0052656527
0.063759096 -0.0074486164 -0.0018545896 0.009234831 -0.03005396 -0.007628219 0.00025281197 0.010008742
0.0108911265 -0.015507287 0.019698696 0.020824054 -0.02737569 -0.019388538 0.016637335 -0.009685175
-0.0105445 -0.05223339 0.02208646 0.022113672 -0.00893802 0.030922828 0.0047609736 0.019174742
0.017848378 -0.018442227 -0.0041089496 -0.023380067 0.015787551 -0.01035816 -0.009967777 -0.060567018
0.043330163 0.013255582 0.023660546 0.015025751 -0.016636664 -0.0047717565 0.05492308 -0.017130198
0.055095907 0.01045274 0.011591438 0.0049735443 0.050966498 -0.0007621162 0.001949238 -0.04456483
0.00912861 -0.013937057 0.018975059 0.019313563 -0.0075149164 0.020663267 -0.0003721075 -0.04080924
0.008211959 -0.0082674995 0.0063780844 0.019724688 -0.046078365 0.0058341245 0.009313311 0.026355324
0.0033766362 0.051494803 0.010122098 -0.009577714 -0.05356653 0.028240604 0.0016714985 0.008210433
-0.023845287 -0.007040035 0.010705073 0.014745967 0.0119087715 -0.0064526675 0.036250185 0.013253177
0.00963872 0.01279211 0.026496807 0.029588634 -0.021313805 -0.0108006755 -0.0039661913 0.07355943
-0.0040020905 -0.0089234235 -0.023644459 0.017148783 0.017346999 -0.028839653 -0.042276002 0.00068589783
0.019511344 0.014985251 0.044351853 0.02088943 -0.012977475 -0.0029538488 -0.0064304303 0.008740291
0.03915108 0.0024841109 -0.0076338495 -0.041372783 0.03480053 0.0015472674 -0.013062387 -0.014496746
-0.0020943605 -0.0064302916 -0.0066277417 0.025140077 -0.018560255 -0.0062237903 0.029816505 -0.014578555
0.028911483 0.024906555 -0.002957751 0.014028145 0.01073842 0.0060275435 -0.011478803 -0.0103886835
0.0059567853 -0.004527113 8.551561e-05 -0.022815056 -0.0014837629 -0.023097234 -0.011335554 -0.01049162
-0.005672759 0.0067451824 0.0067091873 -0.0017657514 0.038078338 -0.0018880994 -0.03175593 0.020131033
