Python/_Keras/QuantisedCode/quant_weights.tflite (tflite, 109368 bytes, 8 tensors)

conv2d_1/Conv2D_bias f4 [16]
000000 3b 42 32 3c 5a 89 4a bd de 8f 65 bd 03 ce a5 bc
       0.010880048 -0.049447395 -0.056045406 -0.020239836
000010 fb 19 99 bc 91 53 39 3d d9 90 ac 3c 19 24 9e 3b
       -0.018689146 0.04524571 0.021065162 0.0048260805
000020 d5 f6 cb 3c ef 86 1a bc bb 3f d2 bc 48 4d 91 3c
       0.024897972 -0.009431585 -0.025665155 0.017737046
000030 ca 59 56 bd ad 7c 2d bc c3 6a 93 bd bc 30 f5 ba
       -0.052331723 -0.010588807 -0.071980976 -0.001870654

conv2d_1/kernel i1 [16, 5, 5, 3] scale=0.0012957136 zero_point=0
000000 17 61 e6 48 f8 3e 62 dc 15 55 45 cc eb ec 34 27
       0.029801413 0.12568422 -0.033688553 0.09329138 -0.010365709 0.080334246 0.12697993 -0.04664569 0.027209986 0.11013565 0.08940424 -0.067377105 -0.027209986 -0.025914272 0.067377105 0.05053283
000010 4b e4 41 32 04 0e 45 ea 27 ef 38 07 5c 29 1e 34
       0.09717852 -0.03627998 0.084221385 0.06478568 0.0051828544 0.01813999 0.08940424 -0.0285057 0.05053283 -0.022027131 0.07255996 0.009069995 0.11920565 0.053124256 0.038871408 0.067377105
000020 22 56 bb d8 e8 26 f3 db e2 bf 1f 45 ab 1f 56 44
       0.044054262 0.11143137 -0.08940424 -0.051828545 -0.031097125 0.049237117 -0.016844276 -0.0479414 -0.038871408 -0.084221385 0.040167123 0.08940424 -0.11013565 0.040167123 0.11143137 0.088108525
000030 fd 2d 0b 39 00 e7 ef fe 90 ff bd a1 a2 b1 a3 96
       -0.0038871407 0.05830711 0.01425285 0.073855676 0.0 -0.03239284 -0.022027131 -0.0025914272 -0.14511992 -0.0012957136 -0.08681281 -0.12309279 -0.12179708 -0.10236137 -0.12050136 -0.13734564
000040 c2 c5 27 97 bf a0 2f c6 e5 ce e7 23 f4 18 30 e4
       -0.080334246 -0.0764471 0.05053283 -0.13604993 -0.084221385 -0.1243885 0.06089854 -0.07515139 -0.03498427 -0.06478568 -0.03239284 0.045349974 -0.015548563 0.031097125 0.06219425 -0.03627998
000050 ac f5 db b8 1f 04 b9 25 17 fe ff f2 c4 31 cb e6
       -0.108839944 -0.01425285 -0.0479414 -0.09329138 0.040167123 0.0051828544 -0.091995664 0.0479414 0.029801413 -0.0025914272 -0.0012957136 -0.01813999 -0.077742815 0.063489966 -0.06867282 -0.033688553
000060 e3 1c 27 04 2a 4c e4 c5 aa be 19 27 45 08 1c 42
       -0.037575696 0.03627998 0.05053283 0.0051828544 0.054419972 0.098474234 -0.03627998 -0.0764471 -0.11143137 -0.08551709 0.03239284 0.05053283 0.08940424 0.010365709 0.03627998 0.08551709
000070 50 62 f1 dd 44 c2 b2 f6 0d ea 06 cb c3 15 3d 2f
       0.10365709 0.12697993 -0.019435704 -0.045349974 0.088108525 -0.080334246 -0.10106566 -0.012957136 0.016844276 -0.0285057 0.0077742813 -0.06867282 -0.07903853 0.027209986 0.07903853 0.06089854
000080 04 e8 09 01 2e 16 92 b3 4a dd 39 21 6b 0d 26 50
       0.0051828544 -0.031097125 0.011661422 0.0012957136 0.059602827 0.0285057 -0.14252849 -0.09976995 0.0958828 -0.045349974 0.073855676 0.042758547 0.13864136 0.016844276 0.049237117 0.10365709
000090 10 c2 09 a8 bf 26 df e9 90 95 fb cb f9 f3 b4 b4
       0.020731417 -0.080334246 0.011661422 -0.1140228 -0.084221385 0.049237117 -0.042758547 -0.029801413 -0.14511992 -0.13864136 -0.006478568 -0.06867282 -0.009069995 -0.016844276 -0.098474234 -0.098474234
0000a0 d1 2d d5 29 35 da b1 9b b2 01 ae 1d 2b ce e5 be
       -0.06089854 0.05830711 -0.055715684 0.053124256 0.06867282 -0.049237117 -0.10236137 -0.13086708 -0.10106566 0.0012957136 -0.10624851 0.037575696 0.055715684 -0.06478568 -0.03498427 -0.08551709
0000b0 2e 21 e2 fc 25 2c 06 4d f5 49 21 e2 43 39 12 1f
       0.059602827 0.042758547 -0.038871408 -0.0051828544 0.0479414 0.0570114 0.0077742813 0.09976995 -0.01425285 0.094587095 0.042758547 -0.038871408 0.08681281 0.073855676 0.023322845 0.040167123
0000c0 5a 03 26 c9 1e e0 f5 33 40 6f f6 6b fa 79 17 c2
       0.11661422 0.0038871407 0.049237117 -0.071264245 0.038871408 -0.041462835 -0.01425285 0.06608139 0.08292567 0.1438242 -0.012957136 0.13864136 -0.0077742813 0.15678135 0.029801413 -0.080334246
0000d0 6b f8 3f d9 b7 cd c8 3f 5d de 11 49 00 0b e4 d6
       0.13864136 -0.010365709 0.081629954 -0.05053283 -0.094587095 -0.06608139 -0.07255996 0.081629954 0.12050136 -0.044054262 0.022027131 0.094587095 0.0 0.01425285 -0.03627998 -0.054419972
0000e0 16 d0 09 99 bb 9b 2b a6 c6 12 f1 08 31 c7 9c 14
       0.0285057 -0.06219425 0.011661422 -0.1334585 -0.08940424 -0.13086708 0.055715684 -0.11661422 -0.07515139 0.023322845 -0.019435704 0.010365709 0.063489966 -0.073855676 -0.12957136 0.025914272
0000f0 b4 0b cb 37 46 e9 07 1f 0e eb bb 22 3d e7 ee 4b
       -0.098474234 0.01425285 -0.06867282 0.071264245 0.09069995 -0.029801413 0.009069995 0.040167123 0.01813999 -0.027209986 -0.08940424 0.044054262 0.07903853 -0.03239284 -0.023322845 0.09717852

conv2d_2/Conv2D_bias f4 [32]
000000 39 59 db bb 75 91 ea 3c 25 f2 b8 ba 75 d0 29 bc
       -0.006693986 0.028633812 -0.0014110251 -0.010364641
000010 2c 9c 45 3d 00 fd 6b 3d 0b 3b 7c 3d bb 10 b5 3c
       0.04824464 0.057614326 0.061579745 0.022102704
000020 be 87 62 3d c3 19 c3 3c 46 ad 7d 3c 9f 7b 60 3d
       0.055305235 0.023815995 0.015483206 0.054805394
000030 c6 ba b2 3c 95 d6 c4 3c 53 d2 65 bb 98 08 b4 bb
       0.021817576 0.024028102 -0.003506799 -0.0054941885
000040 6a a0 e9 3c e1 b2 69 bc 77 42 14 3d 27 6b 9d 3d
       0.028518874 -0.014263839 0.0361962 0.07686453
000050 94 fe ca 3c c9 aa 34 3d 07 0e 4a 3d 0a 84 17 3c
       0.024779595 0.044108186 0.049329784 0.009247789
000060 19 07 a7 3d ea e8 8b bd 67 1a 81 3d 1f 53 33 3d
       0.08155651 -0.06831534 0.06303864 0.043780442
000070 e0 53 35 bd 48 9e 80 3d 85 df 6c 3d c6 8e 47 3d
       -0.044269443 0.0628019 0.057830352 0.048720144

conv2d_2/kernel i1 [32, 5, 5, 16] scale=0.0019674362 zero_point=0
000000 13 1c fc 1d 12 03 03 0d 01 30 2c f3 21 03 00 1b
       0.037381288 0.055088215 -0.007869745 0.05705565 0.03541385 0.0059023085 0.0059023085 0.02557667 0.0019674362 0.094436936 0.08656719 -0.02557667 0.064925395 0.0059023085 0.0 0.053120777
000010 f9 f0 1f 1b 21 14 ed e9 ed e9 f9 da 17 18 1a e8
       -0.013772054 -0.03147898 0.06099052 0.053120777 0.064925395 0.03934872 -0.037381288 -0.04525103 -0.037381288 -0.04525103 -0.013772054 -0.074762575 0.04525103 0.047218468 0.05115334 -0.047218468
000020 33 ee cf f7 e2 02 c9 e4 0b d2 c0 f8 ca e7 f0 07
       0.10033924 -0.03541385 -0.09640437 -0.017706925 -0.059023086 0.0039348723 -0.10820899 -0.055088215 0.021641798 -0.09050206 -0.12591591 -0.01573949 -0.106241554 -0.049185906 -0.03147898 0.013772054
000030 2d a3 ed e1 b7 0d c5 c3 39 b3 d1 d9 f8 ff c0 09
       0.08853463 -0.18297157 -0.037381288 -0.06099052 -0.14362285 0.02557667 -0.116078734 -0.12001361 0.11214386 -0.15149258 -0.0924695 -0.07673001 -0.01573949 -0.0019674362 -0.12591591 0.017706925
000040 1e b5 05 b4 da 39 d1 ef 3f b9 dd c6 e3 22 d2 c7
       0.059023086 -0.1475577 0.00983718 -0.14952515 -0.074762575 0.11214386 -0.0924695 -0.033446416 0.12394848 -0.13968797 -0.06886026 -0.1141113 -0.05705565 0.06689283 -0.09050206 -0.11214386
000050 f4 fd 25 0b f1 e2 0d 16 fd 3e 01 13 20 d2 1f f6
       -0.023609234 -0.0059023085 0.07279514 0.021641798 -0.029511543 -0.059023086 0.02557667 0.043283597 -0.0059023085 0.12198104 0.0019674362 0.037381288 0.06295796 -0.09050206 0.06099052 -0.01967436
000060 20 fc e6 ff 1d be fa ed e6 06 eb fb 05 b2 05 06
       0.06295796 -0.007869745 -0.05115334 -0.0019674362 0.05705565 -0.12985079 -0.011804617 -0.037381288 -0.05115334 0.011804617 -0.04131616 -0.00983718 0.00983718 -0.15346003 0.00983718 0.011804617
000070 36 da df 0a d3 c6 d9 e0 03 05 e4 07 e5 cf d9 f0
       0.106241554 -0.074762575 -0.064925395 0.01967436 -0.08853463 -0.1141113 -0.07673001 -0.06295796 0.0059023085 0.00983718 -0.055088215 0.013772054 -0.053120777 -0.09640437 -0.07673001 -0.03147898
000080 13 9c d7 cd ce 10 fa e6 e4 d6 e9 fb df ca f8 db
       0.037381288 -0.19674362 -0.08066488 -0.10033924 -0.09837181 0.03147898 -0.011804617 -0.05115334 -0.055088215 -0.08263232 -0.04525103 -0.00983718 -0.064925395 -0.106241554 -0.01573949 -0.07279514
000090 1c c0 d0 ae cd 0f fd f9 36 ce 0d da ea 37 d2 c7
       0.055088215 -0.12591591 -0.094436936 -0.16132976 -0.10033924 0.029511543 -0.0059023085 -0.013772054 0.106241554 -0.09837181 0.02557667 -0.074762575 -0.043283597 0.10820899 -0.09050206 -0.11214386
0000a0 1c 1d f6 18 26 c7 15 27 ea 32 fb fc 08 d7 2c 06
       0.055088215 0.05705565 -0.01967436 0.047218468 0.074762575 -0.11214386 0.04131616 0.07673001 -0.043283597 0.09837181 -0.00983718 -0.007869745 0.01573949 -0.08066488 0.08656719 0.011804617
0000b0 26 13 fb 34 09 89 fa 05 a8 23 f6 32 f1 ba 14 1e
       0.074762575 0.037381288 -0.00983718 0.10230668 0.017706925 -0.2341249 -0.011804617 0.00983718 -0.17313439 0.06886026 -0.01967436 0.09837181 -0.029511543 -0.13772053 0.03934872 0.059023086
0000c0 0c e6 dd f6 22 90 39 08 b9 2d 15 39 1d c7 13 11
       0.023609234 -0.05115334 -0.06886026 -0.01967436 0.06689283 -0.22035286 0.11214386 0.01573949 -0.13968797 0.08853463 0.04131616 0.11214386 0.05705565 -0.11214386 0.037381288 0.033446416
0000d0 c9 ed 20 fa f4 d1 39 3c a0 3b 12 1a 24 0a d9 0f
       -0.10820899 -0.037381288 0.06295796 -0.011804617 -0.023609234 -0.0924695 0.11214386 0.11804617 -0.18887387 0.116078734 0.03541385 0.05115334 0.0708277 0.01967436 -0.07673001 0.029511543
0000e0 ed dd 00 f3 f2 fe 39 f4 f7 2d 3c 32 29 1b fb dd
       -0.037381288 -0.06886026 0.0 -0.02557667 -0.027544107 -0.0039348723 0.11214386 -0.023609234 -0.017706925 0.08853463 0.11804617 0.09837181 0.08066488 0.053120777 -0.00983718 -0.06886026
0000f0 07 0f 23 04 08 cc f6 03 ed fc 10 13 06 f2 16 06
       0.013772054 0.029511543 0.06886026 0.007869745 0.01573949 -0.10230668 -0.01967436 0.0059023085 -0.037381288 -0.007869745 0.03147898 0.037381288 0.011804617 -0.027544107 0.043283597 0.011804617

conv2d_3/Conv2D_bias f4 [64]
000000 f8 bc 0b 3e d3 4b 2b 3d 70 ed 52 3d 2c 90 74 3c
       0.13646305 0.04182036 0.05149597 0.014926951
000010 fa 69 96 3d 65 50 e3 3d 05 37 30 3d cc 75 59 3d
       0.07344432 0.110993184 0.04302122 0.053090855
000020 7a 72 d9 3d b0 bc 5f 3d 56 e9 66 bc 7a 99 dd 3c
       0.10617538 0.054623306 -0.014093718 0.027050722
000030 73 65 2a 3d a8 75 04 3e bc 1e 33 3d fb ae b1 3d
       0.041600656 0.12935507 0.043730482 0.08675953
000040 70 ee 0f 3d ea 4b 57 3d 14 3b 46 3d 5b 0d bf 3d
       0.0351395 0.05256263 0.048396185 0.09328719
000050 fa f0 dc 3d 51 e9 1c 3e 03 94 59 3d a2 43 7d 3d
       0.1078815 0.15323378 0.05311967 0.061832078
000060 a6 9e 30 3d 9b 9d ea 3d e7 78 d9 3d db e5 73 3d
       0.04312005 0.11455842 0.106187634 0.05954538
000070 7c aa 2a 3d f2 b2 c4 3d 62 51 ef 3d ec a4 b7 3d
       0.041666493 0.096044436 0.116854444 0.08967003
000080 3f d8 a4 3c dd 84 1b 3e 3b e8 af 3d 9c eb dc 3d
       0.020122645 0.15187402 0.08589216 0.107871264
000090 33 59 94 3d 15 9f 74 3d d3 ef b0 3c 2e b3 29 3d
       0.07243576 0.059722025 0.021598732 0.041430645
0000a0 23 e8 0e 3d ae 82 07 3e d7 03 cd 3d bf 6f 4a 3d
       0.03488935 0.13233444 0.10010498 0.049422976
0000b0 e7 80 99 3d 5f a4 ba 3d 0e cf 7d 3d fa 6a d9 3d
       0.07495289 0.091133825 0.06196504 0.10616107
0000c0 2e dd d3 3d 68 46 2c 3c 6c e3 b1 3d 49 e3 2d 3c
       0.10344921 0.010514833 0.086859554 0.010613271
0000d0 cb 36 24 3e de 20 52 3d 5f 93 1e 3e 45 8f 86 3d
       0.16036527 0.051300876 0.15485905 0.06570295
0000e0 34 ca 92 3d 13 65 f4 3d 57 7d b9 3d 06 10 f3 3d
       0.071674734 0.11933341 0.0905711 0.118682906
0000f0 b2 cf 3d 3d be 46 35 3d 5c 82 05 3d 2c 75 05 bd
       0.04634065 0.044256918 0.032595024 -0.032582447

conv2d_3/kernel i1 [64, 5, 5, 32] scale=0.0016300391 zero_point=0
000000 f2 fd f3 ee f8 ff 12 fe f9 24 0f 0b 04 0b e6 13
       -0.022820547 -0.0048901173 -0.021190507 -0.029340703 -0.013040313 -0.0016300391 0.029340703 -0.0032600781 -0.011410274 0.058681406 0.024450585 0.01793043 0.0065201563 0.01793043 -0.042381015 0.030970743
000010 29 1c de 05 07 07 e6 fc 13 18 0f e5 cd ea 1e f6
       0.0668316 0.045641094 -0.05542133 0.008150196 0.011410274 0.011410274 -0.042381015 -0.0065201563 0.030970743 0.03912094 0.024450585 -0.044011056 -0.08313199 -0.03586086 0.04890117 -0.016300391
000020 f0 d5 fd 0c ff 11 0c f5 10 f4 0b 13 03 01 d0 09
       -0.026080625 -0.07009168 -0.0048901173 0.01956047 -0.0016300391 0.027710665 0.01956047 -0.01793043 0.026080625 -0.01956047 0.01793043 0.030970743 0.0048901173 0.0016300391 -0.07824188 0.0146703515
000030 f1 fc 02 12 e8 02 ef 06 fb e1 09 08 dd fd eb e4
       -0.024450585 -0.0065201563 0.0032600781 0.029340703 -0.03912094 0.0032600781 -0.027710665 0.009780235 -0.008150196 -0.050531212 0.0146703515 0.013040313 -0.057051368 -0.0048901173 -0.03423082 -0.045641094
000040 0b f1 f2 fa 07 ef 07 e4 13 f4 0a 03 d7 06 ed 09
       0.01793043 -0.024450585 -0.022820547 -0.009780235 0.011410274 -0.027710665 0.011410274 -0.045641094 0.030970743 -0.01956047 0.016300391 0.0048901173 -0.0668316 0.009780235 -0.030970743 0.0146703515
000050 06 27 f7 f5 fe f1 f4 0f f7 dd e2 03 09 0d 08 e7
       0.009780235 0.06357152 -0.0146703515 -0.01793043 -0.0032600781 -0.024450585 -0.01956047 0.024450585 -0.0146703515 -0.057051368 -0.04890117 0.0048901173 0.0146703515 0.021190507 0.013040313 -0.040750977
000060 00 ef f2 18 fa f5 02 f5 fd 35 14 18 04 0b e2 15
       0.0 -0.027710665 -0.022820547 0.03912094 -0.009780235 -0.01793043 0.0032600781 -0.01793043 -0.0048901173 0.08639207 0.032600783 0.03912094 0.0065201563 0.01793043 -0.04890117 0.03423082
000070 04 07 08 03 04 0a dc 0a fa f5 04 01 f7 1d 08 03
       0.0065201563 0.011410274 0.013040313 0.0048901173 0.0065201563 0.016300391 -0.058681406 0.016300391 -0.009780235 -0.01793043 0.0065201563 0.0016300391 -0.0146703515 0.047271132 0.013040313 0.0048901173
000080 04 fa 21 1f 05 05 06 f2 02 0b 1d 18 ea fd ff f3
       0.0065201563 -0.009780235 0.05379129 0.050531212 0.008150196 0.008150196 0.009780235 -0.022820547 0.0032600781 0.01793043 0.047271132 0.03912094 -0.03586086 -0.0048901173 -0.0016300391 -0.021190507
000090 0f eb 14 15 13 06 0c 03 09 db f3 f7 f9 11 17 16
       0.024450585 -0.03423082 0.032600783 0.03423082 0.030970743 0.009780235 0.01956047 0.0048901173 0.0146703515 -0.060311444 -0.021190507 -0.0146703515 -0.011410274 0.027710665 0.037490897 0.03586086
0000a0 0b 0c d6 10 1a 21 fe 16 e9 14 14 dc 23 1c fc 2a
       0.01793043 0.01956047 -0.06846164 0.026080625 0.042381015 0.05379129 -0.0032600781 0.03586086 -0.037490897 0.032600783 0.032600783 -0.058681406 0.057051368 0.045641094 -0.0065201563 0.06846164
0000b0 04 0d f9 f3 f2 23 05 02 e5 08 14 fd fd ee 10 1a
       0.0065201563 0.021190507 -0.011410274 -0.021190507 -0.022820547 0.057051368 0.008150196 0.0032600781 -0.044011056 0.013040313 0.032600783 -0.0048901173 -0.0048901173 -0.029340703 0.026080625 0.042381015
0000c0 24 14 0b 19 0a 26 e2 0d fc 06 16 fa 1a fb 0c 12
       0.058681406 0.032600783 0.01793043 0.040750977 0.016300391 0.061941486 -0.04890117 0.021190507 -0.0065201563 0.009780235 0.03586086 -0.009780235 0.042381015 -0.008150196 0.01956047 0.029340703
0000d0 ea ff 12 e3 ba 09 ee 07 f7 df f6 05 0d 04 ce 27
       -0.03586086 -0.0016300391 0.029340703 -0.047271132 -0.114102736 0.0146703515 -0.029340703 0.011410274 -0.0146703515 -0.05379129 -0.016300391 0.008150196 0.021190507 0.0065201563 -0.08150195 0.06357152
0000e0 fe 10 d8 f8 07 f9 b6 fe e9 fb df f3 12 21 fb e9
       -0.0032600781 0.026080625 -0.065201566 -0.013040313 0.011410274 -0.011410274 -0.12062289 -0.0032600781 -0.037490897 -0.008150196 -0.05379129 -0.021190507 0.029340703 0.05379129 -0.008150196 -0.037490897
0000f0 21 1e fc cb 03 0f 11 fc c8 f2 db f7 f5 f9 d4 36
       0.05379129 0.04890117 -0.0065201563 -0.08639207 0.0048901173 0.024450585 0.027710665 -0.0065201563 -0.09128219 -0.022820547 -0.060311444 -0.0146703515 -0.01793043 -0.011410274 -0.07172172 0.08802211

dense_1/MatMul_bias f4 [2]
000000 4b ea 46 bd bd ea 46 3d
       -0.048563283 0.048563708

dense_1/kernel/transpose i1 [2, 20736] scale=0.0012388163 zero_point=0
000000 01 12 16 24 03 fb 04 f5 01 2d 0b 0d 38 17 ef e4
       0.0012388163 0.022298694 0.02725396 0.044597387 0.0037164488 -0.0061940816 0.004955265 -0.01362698 0.0012388163 0.055746734 0.01362698 0.016104612 0.06937371 0.028492775 -0.021059876 -0.034686856
000010 06 09 e9 14 f2 1c d2 fb ff eb f6 f0 1d 0e 11 04
       0.0074328976 0.011149347 -0.028492775 0.024776326 -0.017343428 0.034686856 -0.05698555 -0.0061940816 -0.0012388163 -0.026015142 -0.012388163 -0.01982106 0.03592567 0.017343428 0.021059876 0.004955265
000020 ec ea e5 08 da 38 ea 08 01 04 12 0e 03 cd 15 06
       -0.024776326 -0.02725396 -0.03344804 0.00991053 -0.04707502 0.06937371 -0.02725396 0.00991053 0.0012388163 0.004955265 0.022298694 0.017343428 0.0037164488 -0.063179635 0.026015142 0.0074328976
000030 1b ed 19 16 2a 02 fd 05 01 19 d6 14 15 03 12 1b
       0.03344804 -0.02353751 0.030970408 0.02725396 0.052030284 0.0024776326 -0.0037164488 0.0061940816 0.0012388163 0.030970408 -0.052030284 0.024776326 0.026015142 0.0037164488 0.022298694 0.03344804
000040 e9 16 e1 f8 07 0c 1a 03 20 ee f9 f3 03 14 05 f3
       -0.028492775 0.02725396 -0.038403306 -0.00991053 0.008671714 0.014865795 0.032209225 0.0037164488 0.03964212 -0.022298694 -0.008671714 -0.016104612 0.0037164488 0.024776326 0.0061940816 -0.016104612
000050 2f 20 08 44 e5 16 f4 3a 09 05 d7 fc 2e 17 09 e6
       0.058224365 0.03964212 0.00991053 0.084239505 -0.03344804 0.02725396 -0.014865795 0.07185134 0.011149347 0.0061940816 -0.05079147 -0.004955265 0.05698555 0.028492775 0.011149347 -0.032209225
000060 08 fe 1c 25 01 30 f4 01 2f f3 ff 09 0f e1 0a 04
       0.00991053 -0.0024776326 0.034686856 0.045836203 0.0012388163 0.05946318 -0.014865795 0.0012388163 0.058224365 -0.016104612 -0.0012388163 0.011149347 0.018582245 -0.038403306 0.012388163 0.004955265
000070 33 fa ff 07 e8 fa 00 08 09 f3 10 11 ea f0 0d f8
       0.063179635 -0.0074328976 -0.0012388163 0.008671714 -0.02973159 -0.0074328976 0.0 0.00991053 0.011149347 -0.016104612 0.01982106 0.021059876 -0.02725396 -0.01982106 0.016104612 -0.00991053
000080 f7 d6 12 12 f9 19 04 0f 0e f1 fd ed 0d f8 f8 cf
       -0.011149347 -0.052030284 0.022298694 0.022298694 -0.008671714 0.030970408 0.004955265 0.018582245 0.017343428 -0.018582245 -0.0037164488 -0.02353751 0.016104612 -0.00991053 -0.00991053 -0.060702
000090 23 0b 13 0c f3 fc 2c f2 2c 08 09 04 29 ff 02 dc
       0.04335857 0.01362698 0.02353751 0.014865795 -0.016104612 -0.004955265 0.05450792 -0.017343428 0.05450792 0.00991053 0.011149347 0.004955265 0.05079147 -0.0012388163 0.0024776326 -0.044597387
0000a0 07 f5 0f 10 fa 11 00 df 07 f9 05 10 db 05 08 15
       0.008671714 -0.01362698 0.018582245 0.01982106 -0.0074328976 0.021059876 0.0 -0.040880937 0.008671714 -0.008671714 0.0061940816 0.01982106 -0.045836203 0.0061940816 0.00991053 0.026015142
0000b0 03 2a 08 f8 d5 17 01 07 ed fa 09 0c 0a fb 1d 0b
       0.0037164488 0.052030284 0.00991053 -0.00991053 -0.0532691 0.028492775 0.0012388163 0.008671714 -0.02353751 -0.0074328976 0.011149347 0.014865795 0.012388163 -0.0061940816 0.03592567 0.01362698
0000c0 08 0a 15 18 ef f7 fd 3b fd f9 ed 0e 0e e9 de 01
       0.00991053 0.012388163 0.026015142 0.02973159 -0.021059876 -0.011149347 -0.0037164488 0.07309016 -0.0037164488 -0.008671714 -0.02353751 0.017343428 0.017343428 -0.028492775 -0.042119753 0.0012388163
0000d0 10 0c 24 11 f6 fe fb 07 20 02 fa df 1c 01 f5 f4
       0.01982106 0.014865795 0.044597387 0.021059876 -0.012388163 -0.0024776326 -0.0061940816 0.008671714 0.03964212 0.0024776326 -0.0074328976 -0.040880937 0.034686856 0.0012388163 -0.01362698 -0.014865795
0000e0 fe fb fb 14 f1 fb 18 f4 17 14 fe 0b 09 05 f7 f8
       -0.0024776326 -0.0061940816 -0.0061940816 0.024776326 -0.018582245 -0.0061940816 0.02973159 -0.014865795 0.028492775 0.024776326 -0.0024776326 0.01362698 0.011149347 0.0061940816 -0.011149347 -0.00991053
0000f0 05 fc 00 ee ff ed f7 f8 fb 05 05 ff 1f fe e6 10
       0.0061940816 -0.004955265 0.0 -0.022298694 -0.0012388163 -0.02353751 -0.011149347 -0.00991053 -0.0061940816 0.0061940816 0.0061940816 -0.0012388163 0.038403306 -0.0024776326 -0.032209225 0.01982106
